…
resize_or_crop: resize_and_crop
save_epoch_freq: 100
save_latest_freq: 5000
serial_batches: False
update_html_freq: 1000
which_direction: BtoA
which_epoch: latest
which_model_netD: basic
which_model_netG: resnet_9blocks
-------------- End ----------------
CustomDatasetDataLoader
dataset [AlignedDataset] was created
#training images = 420
pix2pix
initialization method [normal]
initialization method [normal]
---------- Networks initialized -------------
ResnetGenerator(
  (model): Sequential(
    (0): ReflectionPad2d((3, 3, 3, 3))
    (1): Conv2d (6, 64, kernel_size=(7, 7), stride=(1, 1), bias=False)
    (2): BatchNorm2d(64, eps=1e-05, momentum=0.1, affine=True)
    (3): ReLU(inplace)
    (4): Conv2d (64, 128, kernel_size=(3, 3), stride=(2, 2), padding=(1, 1), bias=False)
    (5): BatchNorm2d(128, eps=1e-05, momentum=0.1, affine=True)
    (6): ReLU(inplace)
    (7): Conv2d (128, 256, kernel_size=(3, 3), stride=(2, 2), padding=(1, 1), bias=False)
    (8): BatchNorm2d(256, eps=1e-05, momentum=0.1, affine=True)
    (9): ReLU(inplace)
    (10): ResnetBlock(
      (conv_block): Sequential(
        (0): ReflectionPad2d((1, 1, 1, 1))
        (1): Conv2d (256, 256, kernel_size=(3, 3), stride=(1, 1), bias=False)
        (2): BatchNorm2d(256, eps=1e-05, momentum=0.1, affine=True)
        (3): ReLU(inplace)
        (4): Dropout(p=0.5)
        (5): ReflectionPad2d((1, 1, 1, 1))
        (6): Conv2d (256, 256, kernel_size=(3, 3), stride=(1, 1), bias=False)
        (7): BatchNorm2d(256, eps=1e-05, momentum=0.1, affine=True)
      )
    )
    (11): ResnetBlock(
      (conv_block): Sequential(
        (0): ReflectionPad2d((1, 1, 1, 1))
        (1): Conv2d (256, 256, kernel_size=(3, 3), stride=(1, 1), bias=False)
        (2): BatchNorm2d(256, eps=1e-05, momentum=0.1, affine=True)
        (3): ReLU(inplace)
        (4): Dropout(p=0.5)
        (5): ReflectionPad2d((1, 1, 1, 1))
        (6): Conv2d (256, 256, kernel_size=(3, 3), stride=(1, 1), bias=False)
        (7): BatchNorm2d(256, eps=1e-05, momentum=0.1, affine=True)
      )
    )
    (12): ResnetBlock(
      (conv_block): Sequential(
        (0): ReflectionPad2d((1, 1, 1, 1))
        (1): Conv2d (256, 256, kernel_size=(3, 3), stride=(1, 1), bias=False)
        (2): BatchNorm2d(256, eps=1e-05, momentum=0.1, affine=True)
        (3): ReLU(inplace)
        (4): Dropout(p=0.5)
        (5): ReflectionPad2d((1, 1, 1, 1))
        (6): Conv2d (256, 256, kernel_size=(3, 3), stride=(1, 1), bias=False)
        (7): BatchNorm2d(256, eps=1e-05, momentum=0.1, affine=True)
      )
    )
    (13): ResnetBlock(
      (conv_block): Sequential(
        (0): ReflectionPad2d((1, 1, 1, 1))
        (1): Conv2d (256, 256, kernel_size=(3, 3), stride=(1, 1), bias=False)
        (2): BatchNorm2d(256, eps=1e-05, momentum=0.1, affine=True)
        (3): ReLU(inplace)
        (4): Dropout(p=0.5)
        (5): ReflectionPad2d((1, 1, 1, 1))
        (6): Conv2d (256, 256, kernel_size=(3, 3), stride=(1, 1), bias=False)
        (7): BatchNorm2d(256, eps=1e-05, momentum=0.1, affine=True)
      )
    )
    (14): ResnetBlock(
      (conv_block): Sequential(
        (0): ReflectionPad2d((1, 1, 1, 1))
        (1): Conv2d (256, 256, kernel_size=(3, 3), stride=(1, 1), bias=False)
        (2): BatchNorm2d(256, eps=1e-05, momentum=0.1, affine=True)
        (3): ReLU(inplace)
        (4): Dropout(p=0.5)
        (5): ReflectionPad2d((1, 1, 1, 1))
        (6): Conv2d (256, 256, kernel_size=(3, 3), stride=(1, 1), bias=False)
        (7): BatchNorm2d(256, eps=1e-05, momentum=0.1, affine=True)
      )
    )
    (15): ResnetBlock(
      (conv_block): Sequential(
        (0): ReflectionPad2d((1, 1, 1, 1))
        (1): Conv2d (256, 256, kernel_size=(3, 3), stride=(1, 1), bias=False)
        (2): BatchNorm2d(256, eps=1e-05, momentum=0.1, affine=True)
        (3): ReLU(inplace)
        (4): Dropout(p=0.5)
        (5): ReflectionPad2d((1, 1, 1, 1))
        (6): Conv2d (256, 256, kernel_size=(3, 3), stride=(1, 1), bias=False)
        (7): BatchNorm2d(256, eps=1e-05, momentum=0.1, affine=True)
      )
    )
    (16): ResnetBlock(
      (conv_block): Sequential(
        (0): ReflectionPad2d((1, 1, 1, 1))
        (1): Conv2d (256, 256, kernel_size=(3, 3), stride=(1, 1), bias=False)
        (2): BatchNorm2d(256, eps=1e-05, momentum=0.1, affine=True)
        (3): ReLU(inplace)
        (4): Dropout(p=0.5)
        (5): ReflectionPad2d((1, 1, 1, 1))
        (6): Conv2d (256, 256, kernel_size=(3, 3), stride=(1, 1), bias=False)
        (7): BatchNorm2d(256, eps=1e-05, momentum=0.1, affine=True)
      )
    )
    (17): ResnetBlock(
      (conv_block): Sequential(
        (0): ReflectionPad2d((1, 1, 1, 1))
        (1): Conv2d (256, 256, kernel_size=(3, 3), stride=(1, 1), bias=False)
        (2): BatchNorm2d(256, eps=1e-05, momentum=0.1, affine=True)
        (3): ReLU(inplace)
        (4): Dropout(p=0.5)
        (5): ReflectionPad2d((1, 1, 1, 1))
        (6): Conv2d (256, 256, kernel_size=(3, 3), stride=(1, 1), bias=False)
        (7): BatchNorm2d(256, eps=1e-05, momentum=0.1, affine=True)
      )
    )
    (18): ResnetBlock(
      (conv_block): Sequential(
        (0): ReflectionPad2d((1, 1, 1, 1))
        (1): Conv2d (256, 256, kernel_size=(3, 3), stride=(1, 1), bias=False)
        (2): BatchNorm2d(256, eps=1e-05, momentum=0.1, affine=True)
        (3): ReLU(inplace)
        (4): Dropout(p=0.5)
        (5): ReflectionPad2d((1, 1, 1, 1))
        (6): Conv2d (256, 256, kernel_size=(3, 3), stride=(1, 1), bias=False)
        (7): BatchNorm2d(256, eps=1e-05, momentum=0.1, affine=True)
      )
    )
    (19): ConvTranspose2d (256, 128, kernel_size=(3, 3), stride=(2, 2), padding=(1, 1), output_padding=(1, 1), bias=False)
    (20): BatchNorm2d(128, eps=1e-05, momentum=0.1, affine=True)
    (21): ReLU(inplace)
    (22): ConvTranspose2d (128, 64, kernel_size=(3, 3), stride=(2, 2), padding=(1, 1), output_padding=(1, 1), bias=False)
    (23): BatchNorm2d(64, eps=1e-05, momentum=0.1, affine=True)
    (24): ReLU(inplace)
    (25): ReflectionPad2d((3, 3, 3, 3))
    (26): Conv2d (64, 2, kernel_size=(7, 7), stride=(1, 1))
  )
)
Total number of parameters: 11389698
NLayerDiscriminator(
  (model): Sequential(
    (0): Conv2d (8, 64, kernel_size=(4, 4), stride=(2, 2), padding=(1, 1))
    (1): LeakyReLU(0.2, inplace)
    (2): Conv2d (64, 128, kernel_size=(4, 4), stride=(2, 2), padding=(1, 1), bias=False)
    (3): BatchNorm2d(128, eps=1e-05, momentum=0.1, affine=True)
    (4): LeakyReLU(0.2, inplace)
    (5): Conv2d (128, 256, kernel_size=(4, 4), stride=(2, 2), padding=(1, 1), bias=False)
    (6): BatchNorm2d(256, eps=1e-05, momentum=0.1, affine=True)
    (7): LeakyReLU(0.2, inplace)
    (8): Conv2d (256, 512, kernel_size=(4, 4), stride=(1, 1), padding=(1, 1), bias=False)
    (9): BatchNorm2d(512, eps=1e-05, momentum=0.1, affine=True)
    (10): LeakyReLU(0.2, inplace)
    (11): Conv2d (512, 1, kernel_size=(4, 4), stride=(1, 1), padding=(1, 1))
    (12): Sigmoid()
  )
)
Total number of parameters: 2770753
-----------------------------------------------
model [Pix2PixModel] was created
create web directory /smc/jianyao/checkpoints/353_norm_EB_resnet/web...
(epoch: 1, iters: 400, time: 0.262) G_GAN: 0.814 G_L1: 4.658 D_real: 0.628 D_fake: 0.750 
…
